machineLearningAndDeepLearning/ML2021/HW1/models/model.pth (torch, 25887 bytes, 3 tensors)

net.0.weight f4 [64, 93]
0.06427748 -0.016464125 -0.040045746 0.00632925 0.009565632 0.060174275 0.05199396 -0.03455046
0.03122922 -0.017008029 0.059195884 0.05935522 -0.092389464 -0.03830407 0.02908809 -0.008835639
0.055224963 -0.010914719 0.03560586 0.0048854826 0.10837378 0.17712173 0.11055745 0.049108077
-0.0910885 0.043793608 -0.038429406 0.039245956 -0.017988393 -0.055124022 0.041147005 0.10761299
-0.09585857 -0.103612565 0.012251749 -0.039237242 0.16055334 -0.010119976 -0.02454513 0.019485386
0.025338506 0.023569074 -0.08033144 -0.18025902 -0.016339468 -0.07014315 -0.09567674 0.04260516
-0.0882628 -0.004586261 -0.07068283 -0.08952736 -0.04542673 0.09342258 0.081289224 -0.048211984
0.08132121 0.17129584 0.05449301 -0.060717802 -0.08447877 -0.17226106 0.026411694 -0.0875203
0.04970238 -0.014338842 0.10187891 -0.018127967 0.119559705 -0.14636463 0.024616383 -0.1392772
0.14667223 0.12781182 0.02731459 0.18139566 0.116778895 -0.11781578 -0.0004775923 -0.05372097
0.013358049 -0.11171746 -0.10122721 -0.060429975 -0.016480604 0.052465927 -0.015725482 0.016554663
0.059693754 -0.1190877 0.0091038225 0.10614448 0.24565358 0.017983563 -0.17377421 0.043921284
0.012418509 -0.023216872 -0.007005247 0.11062707 -0.10270798 -0.036420792 -0.045801308 0.03207681
-0.0095441695 0.03733258 0.18813127 0.0353752 0.03894313 -0.08137619 -0.043790065 -0.07619625
-0.015310164 0.13033356 0.19569498 0.017390374 0.16549124 0.101833716 0.05096186 -0.0694533
0.1372479 0.073312916 0.0053102933 -0.020958915 0.04446078 -0.27745014 -0.04969637 0.12998348
0.075233154 0.08648508 -0.12623544 -0.011364839 0.039187476 -0.02598304 0.038100917 0.06381983
-0.04698006 -0.043590296 0.1304098 0.039716803 0.07761778 0.023239357 -0.053470463 0.025826907
0.09641683 0.035426 -0.06092701 -0.07853935 0.01663226 -0.08264487 -0.018964646 0.12783885
-0.084261656 -0.08747021 0.0041544987 0.06401882 0.029654609 0.030344054 -0.057141893 -0.0064939004
-0.14882459 0.058098145 -0.060047217 -0.06150848 -0.00785514 -0.027845064 -0.12950702 -0.04826056
0.5285685 -0.024678454 0.08716487 0.031840585 -0.017803792 0.023647323 -0.16786668 -0.028831724
-0.19467747 0.063769676 -0.010270865 0.1138638 0.06084123 0.039335757 0.10469782 0.03107907
0.017969957 -0.19461198 0.006670705 -0.16619194 -0.052546974 0.016383996 -0.15814908 0.16050759
0.05583304 0.0074325926 0.07804624 0.038410563 0.060395967 -0.040521495 0.02759241 0.015881578
0.031940673 0.18807429 0.03011244 -0.19519988 -0.012403997 0.066704504 0.0803356 0.20037672
0.13111752 0.07081482 -0.029939746 0.021603685 -0.2840816 0.09216202 0.092639744 0.047816407
0.020594953 0.16809937 -0.08260975 0.028349742 -0.011695942 -0.08647634 0.021372031 -0.123566754
-0.06971809 0.09858419 0.009436568 0.03356142 0.031386048 -0.121784866 -0.09300471 0.06515311
-0.0081461435 0.05393342 -0.11478272 0.002034651 -0.14330909 -0.04142825 0.11562958 0.012869332
-0.029937644 -0.0648575 -0.112148225 -0.054709386 0.042544343 -0.026507711 -0.0520354 -0.059843164
0.025554888 -0.0022813356 0.1364448 0.12092192 -0.19758168 -0.070658706 -0.14679824 0.115091786
00000000: e9a3 833d c6df 86bc 0207 24bd 9965 cf3b
00000010: 2bb9 1c3c 4d79 763d 9ef7 543d c884 0dbd
00000020: 6cd4 ff3c 6c54 8bbc 6277 723d 761e 733d
00000030: b036 bdbd bae4 1cbd 254a ee3c 5bc3 10bc
00000040: 9233 623d a6d3 32bc 73d7 113d 6616 a03b
00000050: 13f3 dd3d 665f 353e f26b e23d 8d25 493d
00000060: 9c8c babd ed60 333d 2768 1dbd 5ec0 203d
00000070: 655c 93bc bac9 61bd c389 283d 3364 dc3d
00000080: 7f51 c4bd d332 d4bd 8fbb 483c 3bb7 20bd
00000090: 1868 243e 41ce 25bc de12 c9bc d19f 9f3c
000000a0: b392 cf3c ee13 c13c cf84 a4bd d295 38be
000000b0: 59da 85bc 36a7 8fbd 2bf2 c3bd c082 2e3d
000000c0: 20c3 b4bd 5948 96bb 29c2 90bd 1f5a b7bd
000000d0: 6111 3abd 5654 bf3d f77a a63d ee79 45bd
000000e0: bc8b a63d 2d68 2f3e 1034 5f3d 3bb3 78bd
000000f0: 3503 adbd 3465 30be 565d d83c d83d b3bd
00000100: b994 4b3d 76ed 6abc e4a5 d03d 1a81 94bc
00000110: b8db f43d 9ce0 15be 4ca8 c93c af9e 0ebe
00000120: 3f31 163e 1ae1 023e d9c2 df3c c9bf 393e
00000130: c629 ef3d 6649 f1bd 5a65 fab9 850a 5cbd
00000140: b8db 5a3c 20cc e4bd 3650 cfbd 6c85 77bd
00000150: 5502 87bc 83e6 563d bad2 80bc a59d 873c
00000160: 7081 743d 41e4 f3bd 3328 153c 4762 d93d
00000170: 9d8c 7b3e 4452 933c def1 31be cee6 333d
00000180: 0177 4b3c 4f31 bebc 458c e5bb 7290 e23d
00000190: 9058 d2bd f82d 15bd 279a 3bbd f962 033d
000001a0: 265f 1cbc 0cea 183d 7ca5 403e 96e5 103d
000001b0: d582 1f3d 8fa8 a6bd 365d 33bd c80c 9cbd
000001c0: 7bd7 7abc 2976 053e 4464 483e 4276 8e3c
000001d0: 8976 293e 328e d03d 62bd 503d 883d 8ebd
000001e0: b78a 0c3e 1525 963d f801 ae3b 08b2 abbc
000001f0: 821c 363d f20d 8ebe 6c8e 4bbd 641a 053e
00000200: d713 9a3d 171f b13d dd43 01be 9733 3abc
00000210: 0c83 203d 62da d4bc b50f 1c3d f9b3 823d
00000220: 2a6e 40bd bd8b 32bd 268a 053e 16ae 223d
00000230: 12f6 9e3d 7760 be3c d803 5bbd f392 d33c
00000240: 3076 c53d da1a 113d 9a8e 79bd 3dd9 a0bd
00000250: 6140 883c b741 a9bd bf5b 9bbc 30e8 023e
00000260: 6091 acbd 9523 b3bd 7622 883b 4d1c 833d
00000270: 39ee f23c 1894 f83c 9e0d 6abd c9ca d4bb
00000280: 7965 18be 52f8 6d3d 12f4 75bd 51f0 7bbd
00000290: d8b2 00bc 551b e4bc 7d9d 04be ddac 45bd
000002a0: 4450 073f 782a cabc 7f83 b23d 466b 023d
000002b0: 42d9 91bc 08b8 c13c 3ee5 2bbe 8230 ecbc
000002c0: 8859 47be ad99 823d 2147 28bc 6d31 e93d
000002d0: a734 793d 881e 213d d06b d63d 8999 fe3c
000002e0: bb35 933c 5d48 47be ee95 da3b 382e 2abe
000002f0: 7f3b 57bd bb37 863c d5f1 21be 1a5c 243e
00000300: 30b1 643d 1b8d f33b b5d6 9f3d 6554 1d3d
00000310: c361 773d def9 25bd 7a09 e23c 151a 823c
00000320: 39d4 023d 8c96 403e 5dae f63c 7ae2 47be
00000330: 223a 4bbc 5f9c 883d fe86 a43d 8e2f 4d3e
00000340: ac43 063e 5c07 913d 3344 f5bc 36fa b03c
00000350: 2573 91be 71bf bc3d e8b9 bd3d 23db 433d
00000360: bfb6 a83c 3e22 2c3e 4d2f a9bd b83d e83c
00000370: 56a0 3fbc 821a b1bd 6614 af3c 9110 fdbd
00000380: 5cc8 8ebd 82e6 c93d d69b 1a3c b377 093d
00000390: a88e 003d 586a f9bd 4179 bebd fe6e 853d
000003a0: 6777 05bc 4ae9 5c3d 3413 ebbd c857 053b
000003b0: 9ebf 12be abb0 29bd 34cf ec3d e4d9 523c
000003c0: ca3f f5bc 02d4 84bd f8ad e5bd f316 60bd
000003d0: fa42 2e3d b326 d9bc 1223 55bd 1b1e 75bd
000003e0: 7c58 d13c 7682 15bb 30b8 0b3e e9a5 f73d
000003f0: da52 4abe 83b5 90bd 4752 16be 3eb5 eb3d

net.0.bias f4 [64]
0.32291728 0.8360175 0.8673794 -0.1925399 -0.16571164 0.021174636 -0.010142282 -0.09797425
0.09723818 0.44487646 -0.17813338 0.95772606 0.06008554 1.4923009 -0.12798962 0.4682335
0.1758074 0.47249246 -0.24586965 0.020135341 0.3899991 0.3226251 -0.20799042 -0.2097515
0.014761896 0.33850867 0.26242173 0.6019245 -0.06775861 -0.07950476 0.2870924 0.828456
0.30142936 0.65049297 0.27527356 -0.23448332 -0.07429387 0.17959926 0.3942981 0.51997316
-0.2568443 0.059057925 -0.1009045 -0.1774797 0.25833303 0.23421466 -0.00040029484 0.3761509
0.19590895 0.5543895 0.19746138 0.6971515 0.19620922 0.33807167 0.42589805 0.76111156
0.038196944 -0.056528945 0.5594322 0.73465824 0.13609435 0.2961236 -0.26012832 0.067910396
00000000: 6a55 a53e 3e05 563f 940c 5e3f 2e29 45be
00000010: 50b0 29be 6e76 ad3c d02b 26bc b9a6 c8bd
00000020: d024 c73d d9c6 e33e 9968 36be 892d 753f
00000030: 411c 763d b703 bf3f b60f 03be 4dbc ef3e
00000040: db06 343e 88ea f13e 41c5 7bbe dff2 a43c
00000050: f6ad c73e 1e2f a53e 71fb 54be 19c9 56be
00000060: e1db 713c 0251 ad3e 245c 863e b917 1a3f
00000070: 07c5 8abd 64d3 a2bd c6fd 923e b115 543f
00000080: f354 9a3e b586 263f a8f0 8c3e 651c 70be
00000090: 6227 98bd dee8 373e 71e1 c93e f61c 053f
000000a0: 1981 83be b9e6 713d 05a7 cebd 3dbd 35be
000000b0: 3a44 843e f8d5 6f3e aade d1b9 da96 c03e
000000c0: 5b9c 483e 78ec 0d3f 5133 4a3e 8578 323f
000000d0: 12eb 483e bb17 ad3e 4f0f da3e 35d8 423f
000000e0: 6674 1c3d e58a 67bd f336 0f3f 9012 3c3f
000000f0: 515c 0b3e 839d 973e 8a2f 85be 9b14 8b3d

net.2.weight f4 [1, 64]
0.22356221 0.75350565 0.84382963 0.3791876 0.25540906 0.23836468 0.49546593 0.42754623
0.95770556 0.56087744 0.8488059 0.78676105 0.79172605 1.2176393 -0.63185626 0.31886968
0.5780172 0.79141736 0.5165301 0.28103656 0.80583805 0.84765 0.41170746 0.46306765
0.44588682 0.6576642 0.33692545 0.5645592 0.35017002 0.34242016 0.49999884 0.7066627
0.3277456 0.70929044 0.33675286 0.53777665 0.2947713 0.6698499 0.14455324 0.60938674
0.49629164 0.2836798 0.18048479 0.26432058 0.43760544 0.4386768 0.20225143 0.4115252
0.4834858 0.33411267 0.5085605 0.77451044 0.58188933 0.67777264 0.22894779 0.69236976
0.48940498 0.38912535 0.4757484 0.70089775 0.21491101 0.4288787 0.62946665 -0.35319915
00000000: 7eed 643e bfe5 403f 3805 583f e124 c23e
00000010: fac4 823e df15 743e b6ad fd3e 57e7 da3e
00000020: 312c 753f aa95 0f3f 584b 593f 2c69 493f
00000030: 8fae 4a3f 9bdb 9b3f 55c1 21bf e342 a33e
00000040: eff8 133f 549a 4a3f 513b 043f 06e4 8f3e
00000050: 674b 4e3f 97ff 583f 52cb d23e 3417 ed3e
00000060: 474b e43e ae5c 283f 7e81 ac3e f486 103f
00000070: 7c49 b33e b251 af3e d9ff ff3e d9e7 343f
00000080: 45ce a73e 0f94 353f df6a ac3e bbab 093f
00000090: 44ec 963e 487b 2b3f c405 143e c500 1c3f
000000a0: f019 fe3e 7b3e 913e 01d1 383e 0755 873e
000000b0: d20d e03e 3f9a e03e 001b 4f3e 6eb3 d23e
000000c0: 738b f73e d110 ab3e 0531 023f 5146 463f
000000d0: b3f6 143f 8282 2d3f 4a71 6a3e 253f 313f
000000e0: 4a93 fa3e 703b c73e 4b95 f33e 096e 333f
000000f0: a211 5c3e fd95 db3e ba24 213f 85d6 b4be
